models/gatekeeper_final.pth (torch, 5687 bytes, 3 tensors)

net.0.weight f4 [64, 10]
-0.2930594 -0.01709474 0.0334903 -0.31402278 -0.019631071 -0.24860652 0.053426564 0.075586855
0.07751644 0.2359398 0.28331912 0.09682995 0.19548897 -0.19227313 0.08914841 -0.1404105
-0.16830698 0.24753393 0.07795452 0.30127528 0.0385759 -0.09126203 0.2028071 -0.036493633
0.13893501 -0.029770728 -0.2684301 -0.10997738 -0.32796526 -0.27687034 0.10947344 0.2626413
-0.037048865 -0.16855542 0.20224454 0.20279106 0.08861549 -0.15560633 0.13479184 0.22334811
0.19631845 -0.14913762 -0.2539521 -0.25476813 0.14049433 0.21642378 -0.10370524 -0.045160234
0.07504359 0.13799094 0.24539758 -0.16839182 0.38498014 0.32841867 0.22094232 -0.07246427
0.08366622 -0.19905342 -0.27571622 -0.117139526 -0.05644901 -0.36095032 -0.051805608 -0.24867836
0.26102006 -0.059393134 0.025491916 0.20667945 -0.23447192 -0.059224233 0.15392794 -0.07715255
-0.16607615 -0.0085221715 0.063694574 -0.03093848 0.33987254 0.02492289 0.22796184 0.06598957
0.039764415 -0.0690266 -0.25103173 0.02203443 -0.2909711 -0.2355037 -0.38029817 -0.29922363
-0.090578325 0.21101482 -0.12325531 -0.13064909 0.0017721171 0.31612504 -0.2685738 -0.19204919
0.3024203 -0.33902037 -0.13755776 -0.34789008 -0.21886076 -0.11407451 0.0022322016 -0.15111859
0.32497546 -0.16011569 0.23093265 0.2802562 -0.07381017 0.10912549 -0.049915336 0.29172492
-0.019735467 -0.25919345 -0.25070834 -0.15487474 0.101102784 0.17432764 -0.1541222 0.28689563
0.011796979 -0.14749986 -0.04114796 -0.23093428 -0.08439609 -0.24365929 -0.27917048 0.10493403
0.19383149 0.17214555 -0.2235487 -0.12123726 0.28036505 -0.10151746 0.33221418 -0.14472245
-0.11797604 0.2953912 0.038585726 -0.045604534 -0.22185396 -0.090648755 0.0069093825 -0.14046012
-0.22971518 0.31686857 -0.23628995 0.22287211 -0.17913242 0.28029823 0.09559687 -0.06437854
-0.23399779 0.24787953 -0.107034996 -0.04575142 0.16192763 0.11582058 0.26362342 0.036982335
-0.22495773 0.05296293 -0.120642014 -0.26331535 0.048430964 -0.034777172 0.07279667 0.11344859
-0.22081977 -0.34815228 -0.0014469248 0.1806542 -0.08124832 -0.08605324 -0.07091742 0.31666875
0.121925734 -0.16841407 0.122560486 0.25607476 -0.32648665 0.13782425 0.20277242 0.18046127
0.07713599 0.22432807 -0.081359975 -0.10588055 -0.24244936 -0.2105744 0.20542786 0.041828025
-0.20607036 -0.34103423 0.22483988 -0.08631683 -0.120574795 0.00818305 -0.3333946 -0.26232386
-0.18794872 -0.21884537 -0.10086918 -0.15816636 0.18700685 0.14789404 -0.05206303 0.17773034
0.31943697 0.20503807 -0.27395952 -0.04745728 0.18807578 0.075169235 0.21325192 -0.119101256
0.09076724 0.14581412 0.26403597 0.1464459 -0.23359747 -0.02964042 -0.23576728 0.026822662
0.24606723 -0.30116645 -0.28172836 0.11303008 0.16117217 0.045982778 -0.32044247 0.33973122
0.13955241 0.056156844 -0.060221076 -0.20175529 -0.24037212 0.010788589 -0.33074802 0.0015835367
-0.112078525 0.24299107 0.17610936 -0.32972017 0.1603138 0.09583192 -0.12982462 0.17482609
0.21093939 -0.056499183 0.29231218 -0.06767796 0.3145596 -0.19040762 0.031229747 -0.1355715
00000000: e20b 96be 450a 8cbc 202d 093d 98c7 a0be
00000010: 57d1 a0bc b592 7ebe d0d5 5a3d 48cd 9a3d
00000020: f0c0 9e3d 349a 713e 340f 913e c84e c63d
00000030: 432e 483e 3fe3 44be 7193 b63d c5c7 0fbe
00000040: aa58 2cbe 8979 7d3e 9fa6 9f3d c140 9a3e
00000050: c301 1e3d 96e7 babd aaac 4f3e 597a 15bd
00000060: fb44 0e3e bee1 f3bc ac6f 89be d23b e1bd
00000070: 10eb a7be f3c1 8dbe 9c33 e03d ec78 863e
00000080: 8dc0 17bd cb99 2cbe 3119 4f3e 76a8 4f3e
00000090: 0a7c b53d 4457 1fbe df06 0a3e 5eb5 643e
000000a0: b407 493e 88b7 18be 0206 82be f870 82be
000000b0: bfdd 0f3e 329e 5d3e 6a63 d4bd f0f9 38bd
000000c0: 74b0 993d 7f4d 0d3e 8149 7b3e e86e 2cbe
000000d0: 1e1c c53e 7e26 a83e b43e 623e 2668 94bd
000000e0: 3259 ab3d a9d4 4bbe ad2a 8dbe d9e6 efbd
000000f0: 1437 67bd 7bce b8be 1e32 54bd 8aa5 7ebe
00000100: 6ca4 853e 3746 73bd 6cd4 d03c c7a3 533e
00000110: 6819 70be 1c95 72bd 499f 1d3e 2802 9ebd
00000120: de0f 2abe 94a0 0bbc 4d72 823d b272 fdbc
00000130: c603 ae3e 172b cc3c d46e 693e 8a25 873d
00000140: 03e0 223d d15d 8dbd 3b87 80be 8d81 b43c
00000150: 2afa 94be e227 71be 71b6 c2be d733 99be
00000160: 2181 b9bd 4514 583e 486d fcbd e0c8 05be
00000170: 6246 e83a 24db a13e 8182 89be 8ba8 44be
00000180: d5d6 9a3e 1494 adbe f1db 0cbe a61e b2be
00000190: 091d 60be e69f e9bd 214a 123b d5be 1abe
000001a0: 2f63 a63e 5ef5 23be 9c79 6c3e be7d 8f3e
000001b0: c929 97bd 2f7d df3d 0674 4cbd f85c 953e
000001c0: 46ac a1bc 01b5 84be d85c 80be 7c97 1ebe
000001d0: fa0e cf3d f282 323e 36d2 1dbe fce3 923e
000001e0: 1e48 413c 340a 17be c38a 28bd 097a 6cbe
000001f0: dbd7 acbd d281 79be 6fef 8ebe a7e7 d63d
00000200: c37b 463e ec46 303e f3e9 64be 3e4b f8bd
00000210: 028c 8f3e 63e8 cfbd fa17 aa3e 1f32 14be
00000220: 6c9d f1bd 843d 973e 110c 1e3d d2cb 3abd
00000230: af2d 63be 0ea6 b9bd 1a68 e23b c7d4 0fbe
00000240: 753a 6bbe 993c a23e fef5 71be 9638 643e
00000250: 7d6e 37be 4083 8f3e 4bc8 c33d e5d8 83bd
00000260: 1e9d 6fbe 22d4 7d3e 2a35 dbbd d765 3bbd
00000270: 5bd0 253e 5733 ed3d a6f9 863e ca7a 173d
00000280: 525b 66be a8ef 583d 2913 f7bd 45d1 86be
00000290: 8c5f 463d 8272 0ebd 6c16 953d bc57 e83d
000002a0: 941e 62be 0441 b2be bda6 bdba 6afd 383e
000002b0: 8565 a6bd ae3c b0bd 273d 91bd 6822 a23e
000002c0: 33b4 f93d bd74 2cbe fe00 fb3d 3b1c 833e
000002d0: 4229 a7be cd21 0d3e 93a3 4f3e d7ca 383e
000002e0: 79f9 9d3d 42b6 653e 0fa0 a6bd e7d7 d8bd
000002f0: a544 78be d1a0 57be ae5b 523e dd53 2b3d
00000300: 1c04 53be 0a9c aebe 6d3c 663e e1c6 b0bd
00000310: ebef f6bd 3312 063c b2b2 aabe 504f 86be
00000320: a175 40be 0019 60be 8094 cebd 5df6 21be
00000330: b97e 3f3e 8971 173e 0b40 55bd f1fe 353e
00000340: 3e8d a33e 80f5 513e 6c44 8cbe 9162 42bd
00000350: f096 403e 54f2 993d b65e 5a3e 5ceb f3bd
00000360: 2de4 b93d 4c50 153e b92f 873e eaf5 153e
00000370: 2d34 6fbe 77d0 f2bc fa6c 71be 33bb db3c
00000380: 0cf9 7b3e 7d32 9abe b33e 90be 517c e73d
00000390: 510a 253e 7058 3c3d 0911 a4be 40f1 ad3e
000003a0: d4e6 0e3e b804 663d 60aa 76bd f098 4ebe
000003b0: 1c24 76be 9fc2 303c ce57 a9be ad8e cf3a
000003c0: 6d89 e5bd a7d2 783e 0356 343e 15d1 a8be
000003d0: 4d29 243e 8743 c43d bff0 04be 9c05 333e
000003e0: 7f00 583e b06b 67bd f1a9 953e be9a 8abd
000003f0: f50d a13e 37fa 42be 87d5 ff3c 41d3 0abe

net.0.bias f4 [64]
-0.20409167 -0.0072253793 -0.08849039 0.15567508 0.051864035 -0.16515133 -0.09840263 -0.19307293
0.20545693 0.20912576 0.37980315 -0.06819887 -0.14089356 -0.112350285 0.027330715 -0.061901774
0.0008879424 0.33279547 -0.32806724 0.22010481 0.017676475 -0.023610001 -0.04203622 0.060014706
0.28905296 -0.11699708 -0.24675305 0.03737942 0.07852104 -0.28450137 -0.137566 0.13524845
-0.30500382 -0.12320879 0.10060953 -0.29689 -0.28889602 0.2102788 0.008661813 0.08403957
0.1917494 0.13915984 0.24621162 0.14321028 -0.10599581 0.120760046 0.19580603 -0.2388616
0.17015117 0.07529657 -0.12595095 0.36077043 0.30634025 0.14195701 0.047694217 0.20445797
0.0763896 -0.16874465 0.28223017 -0.17319494 0.36612523 0.29728472 0.37911928 -0.08861042
00000000: 68fd 50be e0c2 ecbb 733a b5bd 4a69 1f3e
00000010: 626f 543d 6e1d 29be 5187 c9bd e9b4 45be
00000020: 4d63 523e 1025 563e 8f75 c23e d9ab 8bbd
00000030: 6746 10be e817 e6bd aae4 df3c b78c 7dbd
00000040: cec4 683a 2b64 aa3e 6ef8 a7be 2863 613e
00000050: 41ce 903c c369 c1bc 2c2e 2cbd fbd1 753d
00000060: c0fe 933e 2a9c efbd d5ac 7cbe 2a1b 193d
00000070: a4cf a03d 2aaa 91be 1ade 0cbe 927e 0a3e
00000080: 7629 9cbe e454 fcbd 5f0c ce3d f701 98be
00000090: 2eea 93be 5353 573e 47ea 0d3c f01c ac3d
000000a0: f459 443e eb7f 0e3e e61e 7c3e b7a5 123e
000000b0: 5514 d9bd 0b51 f73d 6081 483e 2398 74be
000000c0: 1c3c 2e3e 1735 9a3d 49f9 00be e7b6 b83e
000000d0: a1d8 9c3e 2e5d 113e 035b 433d 6e5d 513e
000000e0: 2772 9c3d 66cb 2cbe 7980 903e 045a 31be
000000f0: c474 bb3e b435 983e ec1b c23e 6179 b5bd

net.2.weight f4 [1, 64]
0.01320763 -0.08295472 -0.11687638 -0.11850798 0.034223065 0.14145976 -0.124832384 0.08539507
-0.047634806 0.10777377 -0.15481628 0.14700532 -0.108213425 0.03453127 0.08696906 -0.072326615
-0.03703581 -0.13479613 -0.06884337 0.16969255 0.061286777 0.10246283 -0.01475789 0.09714767
-0.09684844 0.15101156 -0.12587869 0.1568691 0.02683082 -0.07695308 0.15902844 -0.11309169
-0.038060896 -0.057044093 0.12700692 -0.063532025 -0.051021036 0.19875874 -0.21842502 0.2104462
-0.058445483 0.040664244 -0.089997396 0.19766784 0.22581735 -0.012556581 0.09945337 -0.13595192
-0.06041545 0.16683544 0.22463351 -0.13508353 -0.18759593 0.19320612 0.23585625 0.06605443
0.22039714 0.09590756 0.16395651 -0.01574129 -0.05899391 -0.08422172 -0.13868383 0.098975495
00000000: d164 583c 2ae4 a9bd e25c efbd 50b4 f2bd
00000010: 7c2d 0c3d d4da 103e 1fa8 ffbd 9ce3 ae3d
00000020: b71c 43bd 7fb8 dc3d 2988 1ebe 9088 163e
00000030: 009f ddbd a970 0d3d d61c b23d fa1f 94bd
00000040: ddb2 17bd ff07 0abe c1fd 8cbd e2c3 2d3e
00000050: d807 7b3d 08d8 d13d 14cb 71bc 5cf5 c63d
00000060: 7a58 c6bd c6a2 1a3e 58e6 00be 4ba2 203e
00000070: 4fcc db3c 9499 9dbd 5ad8 223e 9e9c e7bd
00000080: bee5 1bbd 11a7 69bd 1a0e 023e 141d 82bd
00000090: 6ffb 50bd 6987 4b3e cfaa 5fbe 357f 573e
000000a0: 8864 6fbd 8d8f 263d 8e50 b8bd 7069 4a3e
000000b0: aa3c 673e 1eba 4dbc 35ae cb3d fb36 0bbe
000000c0: 3176 77bd e9d6 2a3e 5406 663e 5653 0abe
000000d0: 2619 40be d3d7 453e 4d84 713e 8c47 873d
000000e0: caaf 613e 2f6b c43d 37e4 273e e1f3 80bc
000000f0: 99a3 71bd 707c acbd 2203 0ebe aab3 ca3d
